…
[2024-07-16 15:11:30,335][root][DEBUG] - Hyperparameter callbacks set to [<skorch.callbacks.training.Checkpoint object at 0x7fc09f95a400>, <nanoz.modeling.LogBestEpoch object at 0x7fc086e6c910>, <nanoz.modeling.ComparisonTensorBoard object at 0x7fc086e6c940>].
[2024-07-16 15:11:30,335][root][DEBUG] - Available module: ['MLP', 'CNN1D', 'CNN2D', 'RNN', 'CRNN1D', 'CRNN2D', 'AE', 'AER', 'AEC'].
[2024-07-16 15:11:30,344][root][DEBUG] - Module CNN1D set to CNN1D(
  (layers): Sequential(
    (0): Conv1DBlock(
      (layers): Sequential(
        (0): InstanceNorm1d(4, eps=1e-18, momentum=0.1, affine=False, track_running_stats=False)
        (1): Conv1d(4, 32, kernel_size=(3,), stride=(1,), padding=(1,), groups=4)
        (2): ReLU()
        (3): BatchNorm1d(32, eps=1e-18, momentum=0.1, affine=True, track_running_stats=True)
        (4): MaxPool1d(kernel_size=2, stride=2, padding=0, dilation=1, ceil_mode=False)
        (5): Conv1d(32, 256, kernel_size=(3,), stride=(1,), padding=(1,), groups=4)
        (6): ReLU()
        (7): BatchNorm1d(256, eps=1e-18, momentum=0.1, affine=True, track_running_stats=True)
        (8): MaxPool1d(kernel_size=2, stride=2, padding=0, dilation=1, ceil_mode=False)
      )
    )
    (1): MLP(
      (layers): Sequential(
        (0): Flatten(start_dim=1, end_dim=-1)
        (1): Linear(in_features=1024, out_features=100, bias=True)
        (2): ReLU()
        (3): BatchNorm1d(100, eps=1e-18, momentum=0.1, affine=True, track_running_stats=True)
        (4): Linear(in_features=100, out_features=50, bias=True)
        (5): ReLU()
        (6): BatchNorm1d(50, eps=1e-18, momentum=0.1, affine=True, track_running_stats=True)
        (7): Linear(in_features=50, out_features=1, bias=True)
      )
    )
  )
) with {'input_dim': [4, 16], 'conv_map': [8, 64], 'conv_kernel': 3, 'pool_kernel': 2, 'mlp_hidden_dims': [100, 50], 'output_dim': 1, 'use_softmax': False, 'conv_norm': 'batch', 'pp_conv_norm': 'instance', 'mlp_norm': 'batch'} parameters.
[2024-07-16 15:11:30,345][root][DEBUG] - Available algorithms: ['ETR', 'HGBR', 'SGDR', 'SVR', 'NNR', 'NNC', 'AEN', 'AERN', 'AECN'].
[2024-07-16 15:11:30,345][root][DEBUG] - Algorithm NNR set to <class 'skorch.regressor.NeuralNetRegressor'>[uninitialized](
  module=CNN1D(
    (layers): Sequential(
      (0): Conv1DBlock(
        (layers): Sequential(
          (0): InstanceNorm1d(4, eps=1e-18, momentum=0.1, affine=False, track_running_stats=False)
          (1): Conv1d(4, 32, kernel_size=(3,), stride=(1,), padding=(1,), groups=4)
          (2): ReLU()
          (3): BatchNorm1d(32, eps=1e-18, momentum=0.1, affine=True, track_running_stats=True)
          (4): MaxPool1d(kernel_size=2, stride=2, padding=0, dilation=1, ceil_mode=False)
          (5): Conv1d(32, 256, kernel_size=(3,), stride=(1,), padding=(1,), groups=4)
          (6): ReLU()
          (7): BatchNorm1d(256, eps=1e-18, momentum=0.1, affine=True, track_running_stats=True)
          (8): MaxPool1d(kernel_size=2, stride=2, padding=0, dilation=1, ceil_mode=False)
        )
      )
      (1): MLP(
        (layers): Sequential(
          (0): Flatten(start_dim=1, end_dim=-1)
          (1): Linear(in_features=1024, out_features=100, bias=True)
          (2): ReLU()
          (3): BatchNorm1d(100, eps=1e-18, momentum=0.1, affine=True, track_running_stats=True)
          (4): Linear(in_features=100, out_features=50, bias=True)
          (5): ReLU()
          (6): BatchNorm1d(50, eps=1e-18, momentum=0.1, affine=True, track_running_stats=True)
          (7): Linear(in_features=50, out_features=1, bias=True)
        )
      )
    )
  ),
) with {'module': CNN1D(
  (layers): Sequential(
    (0): Conv1DBlock(
      (layers): Sequential(
        (0): InstanceNorm1d(4, eps=1e-18, momentum=0.1, affine=False, track_running_stats=False)
        (1): Conv1d(4, 32, kernel_size=(3,), stride=(1,), padding=(1,), groups=4)
        (2): ReLU()
        (3): BatchNorm1d(32, eps=1e-18, momentum=0.1, affine=True, track_running_stats=True)
        (4): MaxPool1d(kernel_size=2, stride=2, padding=0, dilation=1, ceil_mode=False)
        (5): Conv1d(32, 256, kernel_size=(3,), stride=(1,), padding=(1,), groups=4)
        (6): ReLU()
        (7): BatchNorm1d(256, eps=1e-18, momentum=0.1, affine=True, track_running_stats=True)
        (8): MaxPool1d(kernel_size=2, stride=2, padding=0, dilation=1, ceil_mode=False)
      )
    )
    (1): MLP(
      (layers): Sequential(
        (0): Flatten(start_dim=1, end_dim=-1)
        (1): Linear(in_features=1024, out_features=100, bias=True)
        (2): ReLU()
        (3): BatchNorm1d(100, eps=1e-18, momentum=0.1, affine=True, track_running_stats=True)
        (4): Linear(in_features=100, out_features=50, bias=True)
        (5): ReLU()
        (6): BatchNorm1d(50, eps=1e-18, momentum=0.1, affine=True, track_running_stats=True)
        (7): Linear(in_features=50, out_features=1, bias=True)
      )
    )
  )
), 'criterion': <class 'torch.nn.modules.loss.MSELoss'>, 'optimizer': <class 'torch.optim.adam.Adam'>, 'lr': 1e-06, 'max_epochs': 3, 'batch_size': 32, 'iterator_train': <class 'torch.utils.data.dataloader.DataLoader'>, 'iterator_valid': <class 'torch.utils.data.dataloader.DataLoader'>, 'dataset': <class 'skorch.dataset.Dataset'>, 'train_
…
